…
ltilingual.tiktoken'}, 'is_training': True, 'trust_remote_code': True, 'model_path': '/home/vanilla0302/.cache/modelscope/hub/models/FunAudioLLM/Fun-ASR-Nano-2512', 'device': 'cpu'}
[2026-01-23 23:17:23,512][root][INFO] - config.yaml is saved to: /mnt/d/ML/datasets--litagin--Galgame_Speech_ASR_16kHz/outputs/config.yaml
[2026-01-23 23:17:24,482][root][INFO] - Model structure:
FunASRNano(
  (audio_encoder): SenseVoiceEncoderSmall(
    (embed): SinusoidalPositionEncoder()
    (encoders0): ModuleList(
      (0): EncoderLayerSANM(
        (self_attn): MultiHeadedAttentionSANM(
          (linear_out): Linear(in_features=512, out_features=512, bias=True)
          (linear_q_k_v): Linear(in_features=560, out_features=1536, bias=True)
          (dropout): Dropout(p=0.1, inplace=False)
          (fsmn_block): Conv1d(512, 512, kernel_size=(11,), stride=(1,), groups=512, bias=False)
          (pad_fn): ConstantPad1d(padding=(5, 5), value=0.0)
        )
        (feed_forward): PositionwiseFeedForward(
          (w_1): Linear(in_features=512, out_features=2048, bias=True)
          (w_2): Linear(in_features=2048, out_features=512, bias=True)
          (dropout): Dropout(p=0.1, inplace=False)
          (activation): ReLU()
        )
        (norm1): LayerNorm((560,), eps=1e-05, elementwise_affine=True)
        (norm2): LayerNorm((512,), eps=1e-05, elementwise_affine=True)
        (dropout): Dropout(p=0.1, inplace=False)
      )
    )
    (encoders): ModuleList(
      (0-48): 49 x EncoderLayerSANM(
        (self_attn): MultiHeadedAttentionSANM(
          (linear_out): Linear(in_features=512, out_features=512, bias=True)
          (linear_q_k_v): Linear(in_features=512, out_features=1536, bias=True)
          (dropout): Dropout(p=0.1, inplace=False)
          (fsmn_block): Conv1d(512, 512, kernel_size=(11,), stride=(1,), groups=512, bias=False)
          (pad_fn): ConstantPad1d(padding=(5, 5), value=0.0)
        )
        (feed_forward): PositionwiseFeedForward(
          (w_1): Linear(in_features=512, out_features=2048, bias=True)
          (w_2): Linear(in_features=2048, out_features=512, bias=True)
          (dropout): Dropout(p=0.1, inplace=False)
          (activation): ReLU()
        )
        (norm1): LayerNorm((512,), eps=1e-05, elementwise_affine=True)
        (norm2): LayerNorm((512,), eps=1e-05, elementwise_affine=True)
        (dropout): Dropout(p=0.1, inplace=False)
      )
    )
    (tp_encoders): ModuleList(
      (0-19): 20 x EncoderLayerSANM(
        (self_attn): MultiHeadedAttentionSANM(
          (linear_out): Linear(in_features=512, out_features=512, bias=True)
          (linear_q_k_v): Linear(in_features=512, out_features=1536, bias=True)
          (dropout): Dropout(p=0.1, inplace=False)
          (fsmn_block): Conv1d(512, 512, kernel_size=(11,), stride=(1,), groups=512, bias=False)
          (pad_fn): ConstantPad1d(padding=(5, 5), value=0.0)
        )
        (feed_forward): PositionwiseFeedForward(
          (w_1): Linear(in_features=512, out_features=2048, bias=True)
          (w_2): Linear(in_features=2048, out_features=512, bias=True)
          (dropout): Dropout(p=0.1, inplace=False)
          (activation): ReLU()
        )
        (norm1): LayerNorm((512,), eps=1e-05, elementwise_affine=True)
        (norm2): LayerNorm((512,), eps=1e-05, elementwise_affine=True)
        (dropout): Dropout(p=0.1, inplace=False)
      )
    )
    (after_norm): LayerNorm((512,), eps=1e-05, elementwise_affine=True)
    (tp_norm): LayerNorm((512,), eps=1e-05, elementwise_affine=True)
  )
  (llm): Qwen3ForCausalLM(
    (model): Qwen3Model(
      (embed_tokens): Embedding(151936, 1024)
      (layers): ModuleList(
        (0-27): 28 x Qwen3DecoderLayer(
          (self_attn): Qwen3Attention(
            (q_proj): Linear(in_features=1024, out_features=2048, bias=False)
            (k_proj): Linear(in_features=1024, out_features=1024, bias=False)
            (v_proj): Linear(in_features=1024, out_features=1024, bias=False)
            (o_proj): Linear(in_features=2048, out_features=1024, bias=False)
            (q_norm): Qwen3RMSNorm((128,), eps=1e-06)
            (k_norm): Qwen3RMSNorm((128,), eps=1e-06)
          )
          (mlp): Qwen3MLP(
            (gate_proj): Linear(in_features=1024, out_features=3072, bias=False)
            (up_proj): Linear(in_features=1024, out_features=3072, bias=False)
            (down_proj): Linear(in_features=3072, out_features=1024, bias=False)
            (act_fn): SiLUActivation()
          )
          (input_layernorm): Qwen3RMSNorm((1024,), eps=1e-06)
          (post_attention_layernorm): Qwen3RMSNorm((1024,), eps=1e-06)
        )
      )
      (norm): Qwen3RMSNorm((1024,), eps=1e-06)
      (rotary_emb): Qwen3RotaryEmbedding()
    )
    (lm_head): Linear(in_features=1024, out_features=151936, bias=False)
  )
  (audio_adaptor): Transformer(
    (linear1): Linear(in_features=512, out_features=2048, bias=True)
    (relu): ReLU()
    (linear2): Linear(in_features=2048, out_features=1024, bias=True)
    (blocks): ModuleList(
      (0-1): 2 x EncoderLayer(
        (self_attn): MultiHeadedAttention(
          (linear_q): Linear(in_features=1024, out_features=1024, bias=True)
          (linear_k): Linear(in_features=1024, out_features=1024, bias=True)
          (linear_v): Linear(in_features=1024, out_features=1024, bias=True)
          (linear_out): Linear(in_features=1024, out_features=1024, bias=True)
          (dropout): Dropout(p=0.0, inplace=False)
        )
        (feed_forward): PositionwiseFeedForward(
          (w_1): Linear(in_features=1024, out_features=256, bias=True)
          (w_2): Linear(in_features=256, out_features=1024, bias=True)
          (dropout): Dropout(p=0.0, inplace=False)
          (activation): ReLU()
        )
        (norm1): LayerNorm((1024,), eps=1e-12, elementwise_affine=True)
        (norm2): LayerNorm((1024,), eps=1e-12, elementwise_affine=True)
        (dropout): Dropout(p=0.0, inplace=False)
      )
    )
  )
  (ctc_decoder): Transformer(
    (linear1): Linear(in_features=512, out_features=2048, bias=True)
    (relu): ReLU()
    (linear2): Linear(in_features=2048, out_features=512, bias=True)
    (blocks): ModuleList(
      (0-4): 5 x EncoderLayer(
        (self_attn): MultiHeadedAttention(
          (linear_q): Linear(in_features=512, out_features=512, bias=True)
          (linear_k): Linear(in_features=512, out_features=512, bias=True)
          (linear_v): Linear(in_features=512, out_features=512, bias=True)
          (linear_out): Linear(in_features=512, out_features=512, bias=True)
          (dropout): Dropout(p=0.0, inplace=False)
        )
        (feed_forward): PositionwiseFeedForward(
          (w_1): Linear(in_features=512, out_features=128, bias=True)
          (w_2): Linear(in_features=128, out_features=512, bias=True)
          (dropout): Dropout(p=0.0, inplace=False)
          (activation): ReLU()
        )
        (norm1): LayerNorm((512,), eps=1e-12, elementwise_affine=True)
        (norm2): LayerNorm((512,), eps=1e-12, elementwise_affine=True)
        (dropout): Dropout(p=0.0, inplace=False)
      )
    )
  )
  (ctc): CTC(
    (ctc_lo): Linear(in_features=512, out_features=60515, bias=True)
    (ctc_loss): CTCLoss()
  )
)

Model summary:
    Class Name: FunASRNano
    Total Number of model parameters: 868.86 M
    Number of trainable parameters: 272.81 M (31.4%)
    Type: torch.float32
[2026-01-23 23:17:25,279][root][INFO] - Build optim
[2026-01-23 23:17:25,282][root][INFO] - Build scheduler
[2026-01-23 23:17:25,282][root][INFO] - Build dataloader
…
